models/model.tflite (tflite, 27960 bytes, 7 tensors)

sequential_2/quant_depthwise_conv2d_18/depthwise;sequential_2/quant_depthwise_conv2d_18/LastValueQuant/FakeQuantWithMinMaxVarsPerChannel i1 [1, 3, 3, 3]
000000 e0 81 c5 0a 5f 3a 16 5e 0f 66 55 46 98 c5 c3 00
       -32 -127 -59 10 95 58 22 94 15 102 85 70 -104 -59 -61 0
000010 46 d2 cb d6 c8 2e 11 ee d2 99 3c
       70 -46 -53 -42 -56 46 17 -18 -46 -103 60

sequential_2/quant_conv2d_18/Conv2D;sequential_2/quant_conv2d_18/LastValueQuant/FakeQuantWithMinMaxVarsPerChannel i1 [32, 1, 1, 3]
000000 00 81 00 00 00 81 00 00 7f 00 00 00 00 00 00 00
       0 -127 0 0 0 -127 0 0 127 0 0 0 0 0 0 0
000010 00 81 00 00 00 35 7f 27 00 00 00 00 81 a6 00 00
       0 -127 0 0 0 53 127 39 0 0 0 0 -127 -90 0 0
000020 81 00 00 81 00 00 00 00 00 00 00 00 00 a7 81 00
       -127 0 0 -127 0 0 0 0 0 0 0 0 0 -89 -127 0
000030 00 00 00 7f 00 00 00 00 00 00 00 00 8f 81 9b 00
       0 0 0 127 0 0 0 0 0 0 0 0 -113 -127 -101 0
000040 00 00 00 78 7f 00 00 00 00 81 a5 00 00 00 00 00
       0 0 0 120 127 0 0 0 0 -127 -91 0 0 0 0 0
000050 00 00 00 00 00 00 00 00 81 00 7f 00 00 7f 00 00
       0 0 0 0 0 0 0 0 -127 0 127 0 0 127 0 0

sequential_2/quant_depthwise_conv2d_19/depthwise;sequential_2/quant_depthwise_conv2d_19/LastValueQuant/FakeQuantWithMinMaxVarsPerChannel i1 [1, 3, 3, 32]
000000 98 bd 4d 00 ff 06 00 38 03 f9 fa f8 00 08 01 39
       -104 -67 77 0 -1 6 0 56 3 -7 -6 -8 0 8 1 57
000010 fb cd f9 00 ce 01 0c 00 2a 00 00 1e 00 c7 d2 f7
       -5 -51 -7 0 -50 1 12 0 42 0 0 30 0 -57 -46 -9
000020 ce f7 7c fd ff bf 00 2d 00 ed dc ff 00 00 05 0a
       -50 -9 124 -3 -1 -65 0 45 0 -19 -36 -1 0 0 5 10
000030 f9 07 09 00 eb 2e 03 ff 31 00 00 00 00 f2 cf ba
       -7 7 9 0 -21 46 3 -1 49 0 0 0 0 -14 -49 -70
000040 1f fc 6e 01 f7 e8 00 17 00 08 e3 16 00 06 f7 2d
       31 -4 110 1 -9 -24 0 23 0 8 -29 22 0 6 -9 45
000050 02 d4 eb 00 e5 ef f5 00 0d 00 00 f6 00 ad c6 d9
       2 -44 -21 0 -27 -17 -11 0 13 0 0 -10 0 -83 -58 -39
000060 ed e6 d4 00 fd d7 00 ea 03 81 2c 0b 00 09 fb fe
       -19 -26 -44 0 -3 -41 0 -22 3 -127 44 11 0 9 -5 -2
000070 02 07 ef 00 d9 de 19 00 39 00 00 12 00 5b fe cc
       2 7 -17 0 -39 -34 25 0 57 0 0 18 0 91 -2 -52
000080 1d e7 e4 00 08 ad 00 e2 00 f6 e4 30 00 00 00 c5
       29 -25 -28 0 8 -83 0 -30 0 -10 -28 48 0 0 0 -59
000090 00 dd 00 00 c6 dc b7 00 1c 00 00 00 01 78 08 b2
       0 -35 0 0 -58 -36 -73 0 28 0 0 0 1 120 8 -78
0000a0 51 21 de 00 04 e0 00 28 05 28 d1 0d 00 04 02 37
       81 33 -34 0 4 -32 0 40 5 40 -47 13 0 4 2 55
0000b0 fb b5 11 00 df 1b da 00 2e 00 00 1c 00 bd d0 a5
       -5 -75 17 0 -33 27 -38 0 46 0 0 28 0 -67 -48 -91
0000c0 01 f2 ca f7 ee f1 00 eb 00 09 0d 92 00 00 fe e5
       1 -14 -54 -9 -18 -15 0 -21 0 9 13 -110 0 0 -2 -27
0000d0 02 b3 ca 00 00 c4 7e 00 2f 00 00 01 00 09 14 12
       2 -77 -54 0 0 -60 126 0 47 0 0 1 0 9 20 18
0000e0 29 05 e2 00 00 ef 00 f9 00 60 e6 ba 00 ff 03 dc
       41 5 -30 0 0 -17 0 -7 0 96 -26 -70 0 -1 3 -36
0000f0 03 c9 d8 00 0f d7 29 ff 29 00 00 fb 00 0a 03 17
       3 -55 -40 0 15 -41 41 -1 41 0 0 -5 0 10 3 23

sequential_2/quant_conv2d_19/Conv2D;sequential_2/quant_conv2d_19/LastValueQuant/FakeQuantWithMinMaxVarsPerChannel i1 [64, 1, 1, 32]
000000 00 00 00 00 00 00 00 00 00 00 00 00 00 00 00 00
       0 0 0 0 0 0 0 0 0 0 0 0 0 0 0 0
000010 00 00 00 00 00 00 00 00 00 00 00 00 00 00 00 00
       0 0 0 0 0 0 0 0 0 0 0 0 0 0 0 0
000020 00 00 00 00 00 00 00 00 00 00 00 00 00 00 00 00
       0 0 0 0 0 0 0 0 0 0 0 0 0 0 0 0
000030 00 00 00 00 00 00 00 00 00 00 00 00 00 00 00 00
       0 0 0 0 0 0 0 0 0 0 0 0 0 0 0 0
000040 00 3c 4b 00 ff 00 00 31 00 00 00 00 00 00 00 7f
       0 60 75 0 -1 0 0 49 0 0 0 0 0 0 0 127
000050 00 a9 d6 00 b8 0c 00 f7 c5 00 00 1f 00 00 00 93
       0 -87 -42 0 -72 12 0 -9 -59 0 0 31 0 0 0 -109
000060 00 00 81 00 00 cc 00 00 00 00 00 00 00 00 00 22
       0 0 -127 0 0 -52 0 0 0 0 0 0 0 0 0 34
000070 00 a4 e4 00 59 00 10 00 00 00 00 00 00 00 de 00
       0 -92 -28 0 89 0 16 0 0 0 0 0 0 0 -34 0
000080 00 00 5d 00 00 00 00 81 00 00 00 00 00 00 00 00
       0 0 93 0 0 0 0 -127 0 0 0 0 0 0 0 0
000090 00 00 01 00 00 00 c7 00 19 00 00 00 00 00 00 cd
       0 0 1 0 0 0 -57 0 25 0 0 0 0 0 0 -51
0000a0 00 00 00 00 00 00 00 00 00 00 00 00 00 00 00 00
       0 0 0 0 0 0 0 0 0 0 0 0 0 0 0 0
0000b0 00 00 00 00 00 00 00 00 00 00 00 00 00 00 00 00
       0 0 0 0 0 0 0 0 0 0 0 0 0 0 0 0
0000c0 00 00 b5 00 00 00 00 c8 00 00 e7 59 00 00 00 fb
       0 0 -75 0 0 0 0 -56 0 0 -25 89 0 0 0 -5
0000d0 ff 47 2a 00 6d 00 2e 00 81 00 ff 00 00 2f db f1
       -1 71 42 0 109 0 46 0 -127 0 -1 0 0 47 -37 -15
0000e0 00 00 00 00 00 00 00 46 00 b7 00 00 00 00 00 5a
       0 0 0 0 0 0 0 70 0 -73 0 0 0 0 0 90
0000f0 00 00 c7 00 00 1f 00 00 4d 00 00 00 00 81 00 91
       0 0 -57 0 0 31 0 0 77 0 0 0 0 -127 0 -111

sequential_2/quant_depthwise_conv2d_20/depthwise;sequential_2/quant_depthwise_conv2d_20/LastValueQuant/FakeQuantWithMinMaxVarsPerChannel i1 [1, 3, 3, 64]
000000 00 00 df d7 2f 00 bc 1e ee 00 0e c9 f3 22 db 8e
       0 0 -33 -41 47 0 -68 30 -18 0 14 -55 -13 34 -37 -114
000010 00 ab 30 00 18 d8 00 00 19 dd dc c6 00 00 31 ec
       0 -85 48 0 24 -40 0 0 25 -35 -36 -58 0 0 49 -20
000020 31 fc 00 02 00 0d d7 00 15 fd ed 33 00 3a 00 cd
       49 -4 0 2 0 13 -41 0 21 -3 -19 51 0 58 0 -51
000030 e5 1e 00 fe 00 d8 00 cc d4 00 da fe 00 f1 ff 00
       -27 30 0 -2 0 -40 0 -52 -44 0 -38 -2 0 -15 -1 0
000040 00 00 da d8 06 00 c5 1c fe 00 0b dc e5 2a d2 97
       0 0 -38 -40 6 0 -59 28 -2 0 11 -36 -27 42 -46 -105
000050 00 da 2b 00 12 eb 00 00 21 fc f9 e4 00 00 19 ae
       0 -38 43 0 18 -21 0 0 33 -4 -7 -28 0 0 25 -82
000060 44 1e 00 df 00 0c f1 00 19 fc fb 32 00 28 00 b4
       68 30 0 -33 0 12 -15 0 25 -4 -5 50 0 40 0 -76
000070 e8 2d 00 f0 00 f1 00 d2 d4 00 df 11 00 f6 ff 00
       -24 45 0 -16 0 -15 0 -46 -44 0 -33 17 0 -10 -1 0
000080 00 00 e0 dc 41 00 d9 1a e3 00 09 d4 dc 2e c2 86
       0 0 -32 -36 65 0 -39 26 -29 0 9 -44 -36 46 -62 -122
000090 00 b9 44 00 1f eb 00 00 19 fa e1 41 00 00 2b c5
       0 -71 68 0 31 -21 0 0 25 -6 -31 65 0 0 43 -59
0000a0 2f 27 00 a4 00 0d e0 00 20 fc f4 40 00 25 00 e9
       47 39 0 -92 0 13 -32 0 32 -4 -12 64 0 37 0 -23
0000b0 fd 1f 00 f2 00 f7 00 d2 d2 00 db 18 00 16 00 00
       -3 31 0 -14 0 -9 0 -46 -46 0 -37 24 0 22 0 0
0000c0 00 00 ec 2d cd 00 ce 0e e7 00 0c ed 15 16 e3 96
       0 0 -20 45 -51 0 -50 14 -25 0 12 -19 21 22 -29 -106
0000d0 00 fa 3a 00 10 d3 00 00 08 c8 04 2a 00 00 11 ce
       0 -6 58 0 16 -45 0 0 8 -56 4 42 0 0 17 -50
0000e0 45 1d 00 25 00 05 db 00 0f fc ea 1e 00 21 00 d1
       69 29 0 37 0 5 -37 0 15 -4 -22 30 0 33 0 -47
0000f0 e4 2f 00 f6 00 bd 00 db d4 00 e0 06 00 e8 ff 00
       -28 47 0 -10 0 -67 0 -37 -44 0 -32 6 0 -24 -1 0

sequential_2/quant_conv2d_20/Conv2D;sequential_2/quant_conv2d_20/LastValueQuant/FakeQuantWithMinMaxVarsPerChannel i1 [128, 1, 1, 64]
000000 00 00 4a 00 00 00 52 00 32 00 00 00 00 00 98 00
       0 0 74 0 0 0 82 0 50 0 0 0 0 0 -104 0
000010 00 71 38 00 ef f5 00 00 2c e9 25 00 00 00 00 c0
       0 113 56 0 -17 -11 0 0 44 -23 37 0 0 0 0 -64
000020 7f 00 00 4f 00 00 3a 00 00 fd 00 ba 00 16 00 4c
       127 0 0 79 0 0 58 0 0 -3 0 -70 0 22 0 76
000030 00 c8 00 ff 00 da 00 01 ff 00 00 00 00 00 00 00
       0 -56 0 -1 0 -38 0 1 -1 0 0 0 0 0 0 0
000040 00 00 00 00 00 00 ca dd 00 00 00 00 00 00 48 7f
       0 0 0 0 0 0 -54 -35 0 0 0 0 0 0 72 127
000050 00 00 f4 00 ea 00 00 00 df 00 d6 00 00 00 26 20
       0 0 -12 0 -22 0 0 0 -33 0 -42 0 0 0 38 32
000060 00 f1 00 00 00 00 00 00 00 00 00 00 00 00 00 00
       0 -15 0 0 0 0 0 0 0 0 0 0 0 0 0 0
000070 07 12 00 ec 00 00 00 d7 31 00 00 00 00 00 00 00
       7 18 0 -20 0 0 0 -41 49 0 0 0 0 0 0 0
000080 00 00 00 0b 4f 00 00 00 00 00 00 c7 1b 00 00 21
       0 0 0 11 79 0 0 0 0 0 0 -57 27 0 0 33
000090 00 81 00 00 2e 00 00 00 00 00 00 00 00 00 f6 00
       0 -127 0 0 46 0 0 0 0 0 0 0 0 0 -10 0
0000a0 ba 00 00 00 00 00 00 00 00 00 00 00 00 00 00 00
       -70 0 0 0 0 0 0 0 0 0 0 0 0 0 0 0
0000b0 fb 00 00 05 00 1c 00 23 00 00 dc 00 00 00 00 00
       -5 0 0 5 0 28 0 35 0 0 -36 0 0 0 0 0
0000c0 00 00 00 00 00 00 00 00 00 00 00 00 00 00 3d 6d
       0 0 0 0 0 0 0 0 0 0 0 0 0 0 61 109
0000d0 00 00 00 00 c4 00 00 00 00 00 00 00 00 00 00 36
       0 0 0 0 -60 0 0 0 0 0 0 0 0 0 0 54
0000e0 00 00 00 7f 00 00 00 00 00 f4 00 00 00 e7 00 00
       0 0 0 127 0 0 0 0 0 -12 0 0 0 -25 0 0
0000f0 00 00 00 06 00 00 00 d8 1f 00 00 00 00 00 00 00
       0 0 0 6 0 0 0 -40 31 0 0 0 0 0 0 0

sequential_2/quant_dense_2/MatMul;sequential_2/quant_dense_2/LastValueQuant/FakeQuantWithMinMaxVars i1 [5, 128] scale=0.009557296 zero_point=0
000000 00 00 d0 00 00 c1 00 00 00 00 00 b8 b6 00 00 00
       0.0 0.0 -0.4587502 0.0 0.0 -0.6021096 0.0 0.0 0.0 0.0 0.0 -0.68812525 -0.70723987 0.0 0.0 0.0
000010 00 00 cb c2 d1 d1 00 00 00 00 00 00 c8 00 00 00
       0.0 0.0 -0.50653666 -0.5925523 -0.44919288 -0.44919288 0.0 0.0 0.0 0.0 0.0 0.0 -0.5352086 0.0 0.0 0.0
000020 00 00 c3 00 00 ba 00 00 ba 00 00 00 00 00 00 00
       0.0 0.0 -0.58299506 0.0 0.0 -0.6690107 0.0 0.0 -0.6690107 0.0 0.0 0.0 0.0 0.0 0.0 0.0
000030 00 00 b8 00 00 00 b9 00 00 00 00 00 00 00 00 d1
       0.0 0.0 -0.68812525 0.0 0.0 0.0 -0.678568 0.0 0.0 0.0 0.0 0.0 0.0 0.0 0.0 -0.44919288
000040 00 c8 00 33 00 00 00 b9 00 00 00 00 00 00 00 00
       0.0 -0.5352086 0.0 0.48742208 0.0 0.0 0.0 -0.678568 0.0 0.0 0.0 0.0 0.0 0.0 0.0 0.0
000050 2e 00 cc cd c0 00 00 00 00 00 bf 00 00 00 00 00
       0.4396356 0.0 -0.49697936 -0.48742208 -0.6116669 0.0 0.0 0.0 0.0 0.0 -0.6212242 0.0 0.0 0.0 0.0 0.0
000060 c2 00 00 00 00 00 d2 00 00 bf 00 00 00 00 c6 00
       -0.5925523 0.0 0.0 0.0 0.0 0.0 -0.4396356 0.0 0.0 -0.6212242 0.0 0.0 0.0 0.0 -0.55432314 0.0
000070 00 00 00 00 00 00 36 00 00 00 00 00 c7 00 00 00
       0.0 0.0 0.0 0.0 0.0 0.0 0.51609397 0.0 0.0 0.0 0.0 0.0 -0.54476583 0.0 0.0 0.0
000080 ca be 00 bf 00 00 b0 bd 00 00 cb 00 00 00 00 00
       -0.51609397 -0.63078153 0.0 -0.6212242 0.0 0.0 -0.76458365 -0.6403388 0.0 0.0 -0.50653666 0.0 0.0 0.0 0.0 0.0
000090 00 00 00 00 00 00 00 00 00 00 00 ba 00 00 00 00
       0.0 0.0 0.0 0.0 0.0 0.0 0.0 0.0 0.0 0.0 0.0 -0.6690107 0.0 0.0 0.0 0.0
0000a0 00 00 00 00 00 00 00 c1 00 00 bb 00 00 b9 00 bb
       0.0 0.0 0.0 0.0 0.0 0.0 0.0 -0.6021096 0.0 0.0 -0.6594534 0.0 0.0 -0.678568 0.0 -0.6594534
0000b0 d1 00 00 c5 00 bb 00 00 ca cc 00 00 00 af 00 00
       -0.44919288 0.0 0.0 -0.56388044 0.0 -0.6594534 0.0 0.0 -0.51609397 -0.49697936 0.0 0.0 0.0 -0.77414095 0.0 0.0
0000c0 00 00 00 00 00 00 00 00 00 c5 00 00 d3 c1 00 00
       0.0 0.0 0.0 0.0 0.0 0.0 0.0 0.0 0.0 -0.56388044 0.0 0.0 -0.4300783 -0.6021096 0.0 0.0
0000d0 00 ad cf 00 d3 00 00 00 00 00 00 00 00 00 00 2b
       0.0 -0.7932555 -0.4683075 0.0 -0.4300783 0.0 0.0 0.0 0.0 0.0 0.0 0.0 0.0 0.0 0.0 0.4109637
0000e0 00 00 00 00 00 00 00 00 bb 00 d3 00 b7 c2 00 00
       0.0 0.0 0.0 0.0 0.0 0.0 0.0 0.0 -0.6594534 0.0 -0.4300783 0.0 -0.69768256 -0.5925523 0.0 0.0
0000f0 b0 00 00 00 00 00 00 00 00 00 00 00 00 00 00 cc
       -0.76458365 0.0 0.0 0.0 0.0 0.0 0.0 0.0 0.0 0.0 0.0 0.0 0.0 0.0 0.0 -0.49697936
